…
def build_network(d_conv_dim, g_conv_dim, z_size): # define discriminator and generator D = Discriminator(d_conv_dim) G = Generator(z_size=z_size, conv_dim=g_conv_dim) # initialize model weights D.apply(weights_init_normal) G.apply(weights_init_normal) print(D) print() print(G) return D, G . Exercise: Define model hyperparameters . # Define model hyperparams d_conv_dim = 32 g_conv_dim = 32 z_size = 100 &quot;&quot;&quot; DON&#39;T MODIFY ANYTHING IN THIS CELL THAT IS BELOW THIS LINE &quot;&quot;&quot; D, G = build_network(d_conv_dim, g_conv_dim, z_size) . Discriminator( (conv1): Sequential( (0): Conv2d(3, 32, kernel_size=(4, 4), stride=(2, 2), padding=(1, 1), bias=False) ) (conv2): Sequential( (0): Conv2d(32, 64, kernel_size=(4, 4), stride=(2, 2), padding=(1, 1), bias=False) (1): BatchNorm2d(64, eps=1e-05, momentum=0.1, affine=True, track_running_stats=True) ) (conv3): Sequential( (0): Conv2d(64, 128, kernel_size=(4, 4), stride=(2, 2), padding=(1, 1), bias=False) (1): BatchNorm2d(128, eps=1e-05, momentum=0.1, affine=True, track_running_stats=True) ) (fc): Linear(in_features=2048, out_features=1, bias=True) (out): Sigmoid() (dropout): Dropout(p=0.3) ) Generator( (t_conv1): Sequential( (0): ConvTranspose2d(128, 64, kernel_size=(4, 4), stride=(2, 2), padding=(1, 1), bias=False) (1): BatchNorm2d(64, eps=1e-05, momentum=0.1, affine=True, track_running_stats=True) ) (t_conv2): Sequential( (0): ConvTranspose2d(64, 32, kernel_size=(4, 4), stride=(2, 2), padding=(1, 1), bias=False) (1): BatchNorm2d(32, eps=1e-05, momentum=0.1, affine=True, track_running_stats=True) ) (t_conv3): Sequential( (0): ConvTranspose2d(32, 3, kernel_size=(4, 4), stride=(2, 2), padding=(1, 1), bias=False) ) (fc): Linear(in_features=100, out_features=2048, bias=True) (dropout): Dropout(p=0.3) ) . Training on GPU . Check if you can train on GPU. Here, we&#39;ll set this as a boolean variable train_on_gpu. Later, you&#39;ll be responsible for making sure that . Models, | Model inputs, and | Loss function arguments | . Are moved to GPU, where appropriate. . &quot;&quot;&quot; DON&#39;T MODIFY ANYTHING IN THIS CELL &q
…
orward behavior x = self.pool(self.conv_bn2(F.relu(self.conv1(x)))) x = self.pool(self.conv_bn3(F.relu(self.conv2(x)))) x = self.pool(self.conv_bn4(F.relu(self.conv3(x)))) x = self.pool(self.conv_bn5(F.relu(self.conv4(x)))) x = self.pool(self.conv_bn6(F.relu(self.conv5(x)))) x = x.view(-1,256*7*7) x = self.dropout(x) x = F.relu(self.fc1(x)) x = self.dropout(x) x = self.fc2(x) return x #-#-# You so NOT have to modify the code below this line. #-#-# # instantiate the CNN model_scratch = Net() # move tensors to GPU if CUDA is available if use_cuda: model_scratch.cuda() model_scratch . Net( (conv1): Conv2d(3, 16, kernel_size=(3, 3), stride=(1, 1), padding=(1, 1)) (conv2): Conv2d(16, 32, kernel_size=(3, 3), stride=(1, 1), padding=(1, 1)) (conv3): Conv2d(32, 64, kernel_size=(3, 3), stride=(1, 1), padding=(1, 1)) (conv4): Conv2d(64, 128, kernel_size=(3, 3), stride=(1, 1), padding=(1, 1)) (conv5): Conv2d(128, 256, kernel_size=(3, 3), stride=(1, 1), padding=(1, 1)) (pool): MaxPool2d(kernel_size=2, stride=2, padding=0, dilation=1, ceil_mode=False) (fc1): Linear(in_features=12544, out_features=512, bias=True) (fc2): Linear(in_features=512, out_features=133, bias=True) (dropout): Dropout(p=0.2) (conv_bn1): BatchNorm2d(3, eps=16, momentum=0.1, affine=True, track_running_stats=True) (conv_bn2): BatchNorm2d(16, eps=1e-05, momentum=0.1, affine=True, track_running_stats=True) (conv_bn3): BatchNorm2d(32, eps=1e-05, momentum=0.1, affine=True, track_running_stats=True) (conv_bn4): BatchNorm2d(64, eps=1e-05, momentum=0.1, affine=True, track_running_stats=True) (conv_bn5): BatchNorm2d(128, eps=1e-05, momentum=0.1, affine=True, track_running_stats=True) (conv_bn6): BatchNorm2d(256, eps=1e-05, momentum=0.1, affine=True, track_running_stats=True) ) . Question 4: Outline the steps you took to get to your final CNN architecture and your reasoning at each step. . Answer: . Net( (conv1): Conv2d(3, 16, kernel_size=(3, 3), stride=(1, 1), padding=(1, 1)) (conv2): Conv2d(16, 32, kernel_size=(3, 3), stride=(1, 1), padding=(1, 1)) (conv3): Conv2d(32, 64, kernel_size=(3, 3), stride=(1, 1), padding=(1, 1)) (conv4): Conv2d(64, 128, kernel_size=(3, 3), stride=(1, 1), padding=(1, 1)) (conv5): Conv2d(128, 256, kernel_size=(3, 3), stride=(1, 1), padding=(1, 1)) (pool): MaxPool2d(kernel_size=2, stride=2, padding=0, dilation=1, ceil_mode=False) (fc1): Linear(in_features=12544, out_features=512, bias=True) (fc2): Linear(in_features=512, out_features=133, bias=True) (dropout): Dropout(p=0.2) (conv_bn1): BatchNorm2d(3, eps=16, momentum=0.1, affine=True, track_running_stats=True) (conv_bn2): BatchNorm2d(16, eps=1e-05, momentum=0.1, affine=True, track_running_stats=True) (conv_bn3): BatchNorm2d(32, eps=1e-05, momentum=0.1, affine=True, track_running_stats=True) (conv_bn4): BatchNorm2d(64, eps=1e-05, momentum=0.1, affine=True, track_running_stats=True) (conv_bn5): BatchNorm2d(128, eps=1e-05, momentum=0.1, affine=True, track_running_stats=True) (conv_bn6): BatchNorm2d(256, eps=1e-05, momentum=0.1, affine=True, track_running_stats=True) ) . I have created 5 Convolutional with Batch normalization, Batch normalization reduces the amount by what the hidden unit values shift around (covariance shift) . Max Pooling with Stride = 2 . This CNN has two fully connected layers . applied Relu activation after the first fully connected layer . and finnaly I&#39;ve applied d
…
transfer learning to create a CNN to classify dog breed. Use the code cell below, and save your initialized model as the variable model_transfer. . import torchvision.models as models import torch.nn as nn ## TODO: Specify model architecture model_transfer = models.vgg16(pretrained=True) for param in model_transfer.features.parameters(): param.requires_grad = False n_inputs = model_transfer.classifier[6].in_features last_layer = nn.Linear(n_inputs, 133) model_transfer.classifier[6] = last_layer if use_cuda: model_transfer = model_transfer.cuda() model_transfer . VGG( (features): Sequential( (0): Conv2d(3, 64, kernel_size=(3, 3), stride=(1, 1), padding=(1, 1)) (1): ReLU(inplace) (2): Conv2d(64, 64, kernel_size=(3, 3), stride=(1, 1), padding=(1, 1)) (3): ReLU(inplace) (4): MaxPool2d(kernel_size=2, stride=2, padding=0, dilation=1, ceil_mode=False) (5): Conv2d(64, 128, kernel_size=(3, 3), stride=(1, 1), padding=(1, 1)) (6): ReLU(inplace) (7): Conv2d(128, 128, kernel_size=(3, 3), stride=(1, 1), padding=(1, 1)) (8): ReLU(inplace) (9): MaxPool2d(kernel_size=2, stride=2, padding=0, dilation=1, ceil_mode=False) (10): Conv2d(128, 256, kernel_size=(3, 3), stride=(1, 1), padding=(1, 1)) (11): ReLU(inplace) (12): Conv2d(256, 256, kernel_size=(3, 3), stride=(1, 1), padding=(1, 1)) (13): ReLU(inplace) (14): Conv2d(256, 256, kernel_size=(3, 3), stride=(1, 1), padding=(1, 1)) (15): ReLU(inplace) (16): MaxPool2d(kernel_size=2, stride=2, padding=0, dilation=1, ceil_mode=False) (17): Conv2d(256, 512, kernel_size=(3, 3), stride=(1, 1), padding=(1, 1)) (18): ReLU(inplace) (19): Conv2d(512, 512, kernel_size=(3, 3), stride=(1, 1), padding=(1, 1)) (20): ReLU(inplace) (21): Conv2d(512, 512, kernel_size=(3, 3), stride=(1, 1), padding=(1, 1)) (22): ReLU(inplace) (23): MaxPool2d(kernel_size=2, stride=2, padding=0, dilation=1, ceil_mode=False) (24): Conv2d(512, 512, kernel_size=(3, 3), stride=(1, 1), padding=(1, 1)) (25): ReLU(inplace) (26): Conv2d(512, 512, kernel_size=(3, 3), stride=(1, 1), padding=(1, 1)) (27): ReLU(inplace) (28): Conv2d(512, 512, kernel_size=(3, 3), stride=(1, 1), padding=(1, 1)) (29): ReLU(inplace) (30): MaxPool2d(kernel_size=2, stride=2, padding=0, dilation=1, ceil_mode=False) ) (classifier): Sequential( (0): Linear(in_features=25088, out_features=4096, bias=True) (1): ReLU(inplace) (2): Dropout(p=0.5) (3): Linear(in_features=4096, out_features=4096, bias=True) (4): ReLU(inplace) (5): Dropout(p=0.5) (6): Linear(in_features=4096, out_features=133, bias=True) ) ) . Question 5: Outline the steps you took to get to your final CNN architecture and your reasoning at each step. Describe why you think the architecture is suitable for the current problem. . Answer: . VVG was trained on all different images which includes different types of dogs . I have made changes to classification module to match the classes i
…
